data/Anode2vec.pth (torch_old, 212437 bytes, 7 tensors)

weight f4 [92, 30]
-1.7415774 -0.905654 -1.2802017 -0.004662052 -0.6834038 0.70227545 -1.1408851 -1.2709978
-1.2856101 -1.0657009 -0.18433319 -0.18086874 -0.24727789 -0.4195601 -1.873624 0.043690912
-1.0950053 0.10203082 -1.249677 0.52277315 -0.42067766 -0.49042058 -0.6042538 -1.2528542
-0.5786716 -0.39090848 1.25588 0.63170874 -1.1868671 0.5261596 0.8196783 -1.2591828
-0.9402376 0.7286538 0.18235785 0.30347696 0.17888337 1.1751193 -0.11363763 1.0100689
-0.28487667 0.34273574 -1.2121091 -0.7874207 -1.5267307 -1.6618705 0.91911626 0.28990525
1.3252101 -1.2290171 2.0145206 0.14110783 0.54235375 0.46373516 0.032782745 -0.6662931
-1.7162449 -0.4095232 -0.60983366 -0.14796889 -0.4722684 0.52472734 1.1083012 1.8372943
-1.3946109 -0.10520148 -1.4081482 -0.7847082 0.66089576 -0.3394465 -0.44410282 0.18342511
0.5744188 0.80549675 0.8863108 2.1716833 0.7164779 -2.7317462 0.9561414 0.99725354
0.96461236 0.6467106 1.3490201 1.4869933 -0.67031574 -1.5277599 -0.17864107 -2.8602638
-1.1243759 -0.5692781 0.22792916 -0.74047214 -0.0711053 -1.2117912 -0.127795 -0.86472625
0.3436133 0.17260626 -0.5771843 0.1381127 -0.5278486 2.6626232 0.3508365 -0.8869667
-0.1172766 0.07830729 0.37011826 -0.73297054 0.8924361 -0.44599113 -0.059377614 2.6407716
0.06055056 -2.2253118 0.9954107 0.34896937 0.36382386 0.10661621 1.2008413 0.6675639
1.0455706 -0.6269031 -0.4371402 -0.26076403 -1.2276983 -1.3457235 -1.0935781 -0.3740405
0.36076987 0.10167561 0.7593669 1.0293127 -0.05795491 -0.3099284 -0.07784887 -0.4303376
-0.2480689 0.60827464 -1.950847 -0.035771813 -0.3997086 -2.2696087 0.77699554 -0.7635902
-0.76406914 -0.43958354 -0.84263855 0.15002036 0.116749756 0.6794635 1.6972235 0.8054254
-0.6615587 -0.95911056 -0.35826075 0.90189254 0.14470387 1.5788357 -2.2435284 -0.5100398
0.9122829 2.7053995 -0.60059524 0.9297049 -1.0695267 1.2599136 1.0358293 -0.10653363
-1.2278776 -1.1701849 -0.6292944 -1.8933244 -2.122482 1.7603894 -0.37226316 -0.98359936
-0.044268806 1.3701714 1.1399255 0.28365493 -0.10240031 0.08371615 -0.29308626 -1.0028064
0.4614168 1.2009621 1.7345229 1.5770009 0.3837744 -0.15087333 1.0259272 0.3289144
1.0729383 -2.4902008 0.15838498 0.5305105 -1.779602 -0.6532182 1.2165176 0.7399747
0.76084626 0.20391282 0.0062371264 -1.2580249 1.5791968 -1.6021558 -1.3167433 -2.1151943
2.2987537 0.90976703 0.36024156 0.27119994 1.9614092 -0.86455745 0.46298406 -0.04504099
-0.82409525 0.65820044 0.8172098 0.5813636 -0.7184743 1.7258077 0.84515506 -0.8000178
-1.2958962 -1.5860819 2.7208898 -0.84499824 0.63778 1.2685982 1.4695568 -1.3087542
-0.457665 0.9981544 -0.8240068 -0.16090152 0.21767339 0.20306326 -0.013627707 2.1984854
-0.44206136 0.01768459 0.65743005 0.37751433 1.6256672 1.7419761 -0.32709035 0.7352379
0.12016394 0.42052987 -1.036133 -0.79806095 -0.33094582 0.04824445 1.269054 3.0121677
00000000: 02ec debf f1d8 67bf a6dd a3bf 20c4 98bb
00000010: 8df3 2ebf 53c8 333f 8608 92bf 0eb0 a2bf
00000020: df8e a4bf e368 88bf d7c1 3cbe a835 39be
00000030: 6a36 7dbe 95d0 d6be e9d2 efbf 3ef5 323d
00000040: 2229 8cbf 89f5 d03d 6af5 9fbf 76d4 053f
00000050: 1063 d7be 6818 fbbe 61b0 1abf 875d a0bf
00000060: d223 14bf 2825 c8be adc0 a03f aab7 213f
00000070: 43eb 97bf 65b2 063f 70d6 513f e72c a1bf
00000080: 69b3 70bf 0e89 3a3f 04bc 3a3e 5561 9b3e
00000090: 342d 373e 4f6a 963f d9ba e8bd f049 813f
000000a0: 5bdb 91be 0f7b af3e 6426 9bbf 6794 49bf
000000b0: e96b c3bf 2cb8 d4bf 344b 6b3f 766e 943e
000000c0: 7ca0 a93f 6f50 9dbf e8ed 0040 927e 103e
000000d0: b2d7 0a3f b26e ed3e 3347 063d 2f92 2abf
000000e0: eaad dbbf 06ad d1be 0f1e 1cbf 2885 17be
000000f0: 2acd f1be 8854 063f d0dc 8d3f 762c eb3f
00000100: 9c82 b2bf e073 d7bd 333e b4bf a3e2 48bf
00000110: 7730 293f efcb adbe 7261 e3be cbd3 3b3e
00000120: 1c0d 133f 0935 4e3f 44e5 623f dcfc 0a40
00000130: 186b 373f eed4 2ec0 afc5 743f 024c 7f3f
00000140: d6f0 763f d38e 253f b1ac ac3f cc55 be3f
00000150: d099 2bbf a38d c3bf afed 36be 900e 37c0
00000160: 8deb 8fbf 36bc 11bf 4366 693e 958f 3dbf
00000170: a89f 91bd f91b 9bbf b1dc 02be b35e 5dbf
00000180: 15ee af3e b2bf 303e 5ac2 13bf 6a6d 0d3e
00000190: 1621 07bf 6b68 2a40 d7a0 b33e 4010 63bf
000001a0: b72e f0bd 935f a03d 2480 bd3e f5a3 3bbf
000001b0: b176 643f f358 e4be f135 73bd 6702 2940
000001c0: dd03 783d 826b 0ec0 3cd3 7e3f 1dac b23e
000001d0: 1f47 ba3e 9959 da3d 2bb5 993f 78e5 2a3f
000001e0: 42d5 853f b97c 20bf d7d0 dfbe dd82 85be
000001f0: 3825 9dbf ab40 acbf 5efa 8bbf 3d82 bfbe
00000200: d4b6 b83e 4d3b d03d df65 423f 85c0 833f
00000210: 2162 6dbd efae 9ebe 3a6f 9fbd 3655 dcbe
00000220: c605 7ebe e3b7 1b3f 5bb5 f9bf 7785 12bd
00000230: 9ba6 ccbe 4541 11c0 2ee9 463f a67a 43bf
00000240: 099a 43bf 1811 e1be 29b7 57bf f09e 193e
00000250: 7f1a ef3d 52f1 2d3f 9f3e d93f 5c30 4e3f
00000260: e95b 29bf 4588 75bf f46d b7be 6ee2 663f
00000270: 402d 143e 4a17 ca3f f895 0fc0 f891 02bf
00000280: 5f8b 693f 4425 2d40 9cc0 19bf 2401 6e3f
00000290: 40e6 88bf d944 a13f 0e96 843f 4e2e dabd
000002a0: 182b 9dbf 9ec8 95bf 7019 21bf 7458 f2bf
000002b0: bfd6 07c0 7154 e13f 4799 bebe 2bcd 7bbf
000002c0: 3553 35bd c761 af3f 14e9 913f 383b 913e
000002d0: 41b7 d1bd 5f73 ab3d 670f 96be f65b 80bf
000002e0: d33e ec3e 20b9 993f d904 de3f 2adb c93f
000002f0: 147e c43e 8a7e 1abe 9551 833f 7867 a83e
00000300: 0b56 893f 735f 1fc0 ac2f 223e 89cf 073f
00000310: 00ca e3bf 4f39 27bf d9b6 9b3f fb6e 3d3f
00000320: d2c6 423f 86ce 503e cf60 cc3b f606 a1bf
00000330: 1f23 ca3f 7113 cdbf 0b8b a8bf 585f 07c0
00000340: c81e 1340 7ee6 683f 9571 b83e b8da 8a3e
00000350: 750f fb3f a353 5dbf 3f0c ed3e e77c 38bd
00000360: e8f7 52bf d37f 283f a934 513f 3fd4 143f
00000370: efed 37bf 44e7 dc3f 155c 583f f7cd 4cbf
00000380: eddf a5bf bb04 cbbf 0f23 2e40 ce51 58bf
00000390: 8d45 233f 6d61 a23f 701a bc3f 4285 a7bf
000003a0: 1153 eabe 0c87 7f3f 1cf2 52bf 5ec3 24be
000003b0: c6e5 5e3e d1ef 4f3e bf46 5fbc fcb3 0c40
000003c0: de55 e2be 46df 903c 564d 283f 8f49 c13e
000003d0: dd15 d03f 13f9 de3f 6378 a7be 8d38 3c3f
000003e0: 8318 f63d b14f d73e 02a0 84bf b94d 4cbf
000003f0: bb71 a9be f99b 453d 5d70 a23f 5bc7 4040

weight f4 [240, 30]
-0.1570728 0.18487898 -0.09053944 -0.15968068 0.049680185 0.09838048 0.12625143 -0.02319489
-0.031442642 -0.1260614 0.13257958 0.03449197 -0.08074424 -0.10926683 -0.10957281 0.18141282
0.21035771 -0.11863564 -0.011180963 0.08080859 0.11674648 0.07063867 0.17194945 0.09908945
0.04752292 -0.17250554 -0.14842646 -0.17239912 0.19348504 -0.115584984 0.18338767 -0.1731068
-0.11270061 0.07652204 0.0013203374 -0.21605189 -0.14285368 0.12861463 -0.2032862 0.09596475
0.09034429 0.02625598 -0.10136652 -0.02689201 -0.17207663 0.06799723 -0.060092103 -0.0061412686
0.051244125 0.056661136 0.07286697 -0.23605022 0.10857385 0.025923945 0.0028544946 0.12515812
-0.1045923 -0.19262993 0.07997397 0.089021556 -0.039649073 -0.028539127 -0.014847484 0.25614208
-0.10820334 -0.15978317 0.050555274 -0.027149878 -0.119518325 0.13858163 0.043443486 0.06011228
0.10488489 -0.069056936 0.08287831 -0.113087334 -0.09983574 0.15410951 -0.022539161 -0.043644845
-0.051474318 -0.21384671 0.0424828 -0.2548237 -0.07815862 -0.06549534 0.052060507 0.13900031
-0.109345816 0.11035876 0.043159626 -0.05133537 0.070717745 -0.11183222 0.1279204 0.12610811
0.01575011 -0.1758416 -0.060601637 0.012952093 -0.065626755 0.14376901 0.051075954 0.1047402
0.14977412 0.053332973 0.12792322 0.011004606 0.07689702 0.06644149 -0.17130755 -0.12634334
-0.19659938 -0.19233894 0.12625904 0.092398405 -0.007744153 0.08402087 0.18543565 -0.04585835
-0.14278604 -0.14224575 -0.179018 -0.075357676 0.1394885 0.12374017 0.022929734 0.06178618
0.107797176 0.1326096 -0.029143397 -0.11680047 -0.17724364 0.06033551 -0.07011881 -0.04172199
0.17067902 -0.07486896 0.20488168 -0.1691483 0.13649456 -0.10858548 -0.117833324 -0.048271507
0.13615857 0.01148763 -0.11567986 0.18956557 0.3221542 0.18638167 0.07773487 -0.07644831
-0.05929913 -0.13139595 -0.15953018 0.18460521 -0.060801815 0.12526505 0.19786999 0.17629695
0.14862747 -0.16392276 0.02222967 -0.025995739 0.080216944 -0.111218475 0.067398556 0.057303283
-0.10206256 -0.07188644 -0.21833898 0.18766454 0.071585484 0.11714138 -0.09141562 0.10965914
0.009609499 0.11659997 -0.08038866 -0.21924677 -0.16294792 -0.046748653 0.023672482 -0.06296656
0.034469962 -0.1890324 -0.14095534 -0.12145884 -0.1622554 0.12857522 0.11529741 -0.1020997
-0.03676008 -0.13930467 0.10621704 0.045199897 0.12670812 -0.0082307225 -0.13315035 -0.08252545
0.09525498 -0.09868787 0.10544845 0.20837235 -0.06774662 0.05135557 0.12611711 0.080146626
0.07849854 0.22315188 0.24281074 0.07137635 -0.16664392 -0.0033793454 -0.21218409 -0.079717085
0.13427426 -0.08072015 0.14762017 0.14851928 0.016595293 0.17115995 0.017573329 0.058505535
-0.13467094 -0.13239475 -0.094227776 -0.10757838 -0.045952875 -0.00092454156 0.08940744 -0.045304056
-0.062047567 -0.031817075 -0.010482238 -0.017933758 0.15152052 -0.04906617 0.10309867 0.046306483
-0.108528905 0.11794622 0.15546282 0.1536623 -0.07276825 -0.061468035 0.118293785 0.22823413
-0.06454954 0.1321919 0.076331906 -0.15821035 0.02644994 -0.15612452 -0.083623424 0.15936938
00000000: b1d7 20be ea50 3d3e be6c b9bd 5583 23be
00000010: 737d 4b3d b57b c93d 0e48 013e 3603 bebc
00000020: 00ca 00bd 3d16 01be f1c2 073e 7447 0d3d
00000030: 3c5d a5bd 4ac7 dfbd b667 e0bd 48c4 393e
00000040: 0368 573e 3ef7 f2bd 5c30 37bc f97e a53d
00000050: c718 ef3d 02ab 903d 8413 303e 69ef ca3d
00000060: 65a7 423d 4ba5 30be 1bfd 17be 6589 30be
00000070: f120 463e d2b7 ecbd fac9 3b3e e942 31be
00000080: 94cf e6bd 96b7 9c3d 2c0f ad3a b53c 5dbe
00000090: 3c48 12be 8eb3 033e 422a 50be 2b89 c43d
000000a0: 6d06 b93d c816 d73c 4099 cfbd a24c dcbc
000000b0: db34 30be 2242 8b3d 2323 76bd b23c c9bb
000000c0: 5ce5 513d 8215 683d 473b 953d 26b7 71be
000000d0: f75b de3d 745e d43c 7912 3b3b 7329 003e
000000e0: 7d34 d6bd c840 45be 65c9 a33d ef50 b63d
000000f0: 1167 22bd e3ca e9bc dd42 73bc 0e25 833e
00000100: b699 ddbd 339e 23be 0c13 4f3d 6c69 debc
00000110: 06c6 f4bd 58e8 0d3e ccf1 313d 4b38 763d
00000120: e4cd d63d b96d 8dbd 1abc a93d 559a e7bd
00000130: ae76 ccbd e2ce 1d3e 0ca4 b8bc f0c4 32bd
00000140: bcd6 52bd a2fa 5abe 7202 2e3d 4178 82be
00000150: a011 a0bd 6c22 86bd 663d 553d 1956 0e3e
00000160: b3f0 dfbd c603 e23d 26c8 303d 0945 52bd
00000170: 77d4 903d 4a08 e5bd 91fd 023e 7c22 013e
00000180: 6006 813c d20f 34be 6c39 78bd 0435 543c
00000190: 5267 86bd 2f38 133e 0535 513d 0882 d63d
000001a0: 635e 193e ad73 5a3d 4efe 023e aa4c 343c
000001b0: 2f7c 9d3d 7a12 883d 3f6b 2fbe 2660 01be
000001c0: 5951 49be 80f4 44be 0d4a 013e 603b bd3d
000001d0: aac2 fdbb 2213 ac3d d8e2 3d3e f7d5 3bbd
000001e0: 8136 12be dfa8 11be 7f50 37be 2055 9abd
000001f0: 13d6 0e3e 7c6b fd3d 23d7 bb3c 8113 7d3d
00000200: c4c4 dc3d d0ca 073e 22be eebc 1635 efbd
00000210: 5b7f 35be 5e22 773d 739a 8fbd ade4 2abd
00000220: 7bc6 2e3e e654 99bd 81cc 513e 3635 2dbe
00000230: 3bc5 0b3e 1062 debd 9952 f1bd 58b8 45bd
00000240: 276d 0b3e 9d36 3c3c 90e9 ecbd 7a1d 423e
00000250: 65f1 a43e d6da 3e3e 7633 9f3d ee90 9cbd
00000260: a5e3 72bd a98c 06be e15b 23be 2609 3d3e
00000270: 530b 79bd 7b45 003e 6e9e 4a3e 3087 343e
00000280: cd31 183e 5edb 27be ff1a b63c 04f5 d4bc
00000290: c848 a43d 83c6 e3bd 4108 8a3d d9b6 6a3d
000002a0: 2d06 d1bd 3339 93bd 4194 5fbe 222b 403e
000002b0: 699b 923d d2e7 ef3d 1d38 bbbd f994 e03d
000002c0: 2971 1d3c f7cb ee3d cfa2 a4bd 3a82 60be
000002d0: d2db 26be 847b 3fbd cbec c13c 9df4 80bd
000002e0: 6030 0d3d b691 41be 9956 10be 6abf f8bd
000002f0: 4826 26be 39a9 033e 0c21 ec3d a619 d1bd
00000300: bd91 16bd e2a5 0ebe 5288 d93d 8723 393d
00000310: c6bf 013e 27da 06bc 9158 08be 1a03 a9bd
00000320: 0b15 c33d de1c cabd 5bf5 d73d 905f 553e
00000330: bdbe 8abd 385a 523d d824 013e ea23 a43d
00000340: d8c3 a03d ed81 643e 61a3 783e c42d 923d
00000350: b4a4 2abe 0278 5dbb c946 59be b642 a3bd
00000360: 317f 093e 9b50 a5bd be29 173e 7015 183e
00000370: daf2 873c 8e44 2f3e f1f5 8f3c 80a3 6f3d
00000380: 2ee7 09be 7d92 07be 7efa c0bd 0e52 dcbd
00000390: 1539 3cbd ef5c 72ba 3f1b b73d bf90 39bd
000003a0: 9725 7ebd 9f52 02bd b1bd 2bbc d1e9 92bc
000003b0: 3228 1b3e 9cf9 48bd 6525 d33d deab 3d3d
000003c0: 6744 debd ca8d f13d a531 1f3e a659 1d3e
000003d0: 8507 95bd e8c5 7bbd 0344 f23d 35b6 693e
000003e0: 8d32 84bd 505d 073e e753 9c3d e501 22be
000003f0: 8bad d83c 1bdf 1fbe c242 abbd ba31 233e

bias f4 [240]
0.108416416 -0.1695085 -0.26407713 -0.23283707 0.2853959 -0.044491183 0.12861978 -0.2049153
-0.07278839 -0.14072847 -0.32238424 -0.1612364 -0.16722986 -0.2293859 0.16292095 0.2459437
-0.2315036 0.24641976 0.27018178 0.04556157 -0.30837983 -0.16043422 0.19111593 0.082969524
-0.0032562949 0.22754596 -0.092549436 -0.14399932 -0.03327533 -0.05915838 -0.00659382 0.09311252
0.034940265 0.02634942 -0.036670357 0.12684132 0.005724699 -0.24476291 0.24361405 0.21071923
-0.0051715705 0.21686156 0.06305459 0.1964214 -0.21044435 0.2082465 0.068607576 -0.17931558
-0.091315575 -0.05603923 -0.021564834 0.110726744 -0.16382165 -0.15269017 0.0028886714 0.09975534
-0.05925429 -0.27586436 -0.17619675 -0.15828612 0.2105125 -0.29419884 0.1565422 0.1938207
0.032378636 0.21863051 0.08756326 0.11805782 -0.1296024 -0.17740232 -0.02041238 0.10181259
0.12752469 0.086782865 -0.26784527 0.23192462 -0.06499996 0.25412902 -0.19467011 -0.14755282
-0.042507187 -0.017495135 0.14601164 -0.08068555 0.04231418 -0.29215673 -0.16591293 0.15223573
0.397047 0.19528392 0.15360127 -0.14257334 0.028522812 0.085019834 0.099975884 -0.26582775
0.08759799 0.12973407 -0.083039366 0.13933858 -0.14934187 -0.06715688 0.25409907 0.023073217
-0.05221147 -0.2917267 -0.09556987 -0.07732377 -0.11287529 -0.040961355 0.2120151 -0.106780015
-0.26157016 -0.16562058 -0.15708463 0.038289323 -0.08154015 -0.011232555 0.021472067 0.16439843
0.2424245 -0.09486856 -0.16549122 -0.18575422 -0.018266028 -0.18421961 0.19632082 0.09208698
-0.025241822 0.018082399 0.09631682 0.00853145 0.13961528 -0.15442625 0.029152868 0.29759902
0.003058073 0.08547481 -0.19205308 0.08817052 -0.06588019 0.17088272 0.013332971 0.094837576
-0.040530983 0.12883106 0.12015832 0.15084226 0.03760981 0.0425401 0.024691306 -0.09733556
-0.020919045 0.076401874 -0.21655586 0.18410829 -0.06640725 0.07723438 0.16715838 -0.14897978
-0.24678895 -0.13900639 -0.116198145 0.0865671 -0.04032958 0.31464905 -0.051533405 0.068583906
0.07437499 0.31098115 0.060775016 -0.26271874 -0.23142523 -0.1598599 -0.20221873 -0.24805073
-0.2157141 0.14861648 -0.019146949 -0.02466994 -0.19100325 -0.18673274 -0.0468039 0.23914845
-0.12675783 -0.2571464 -0.0689915 -0.043327708 0.07149375 0.1766621 -0.08238262 -0.13091828
-0.14888369 -0.19071855 -0.062290873 0.037601065 -0.22099987 -0.055951625 -0.14187405 0.1977367
0.18280283 -0.069671474 0.10590631 0.13639311 -0.13497093 -0.008219217 0.12305531 -0.20008855
-0.21225509 -0.13949452 -0.08124368 0.2076087 0.18324718 0.113880955 0.20986238 -0.12793192
-0.09297475 -0.10874324 0.09757529 -0.22530715 0.062216993 0.17046857 -0.28160566 0.107280284
-0.20302959 0.030745167 -0.122614086 0.14328012 0.3257286 0.119137056 -0.18890883 -0.24880353
0.12152784 0.10150327 0.084551744 0.13381968 -0.16337454 0.22515942 0.05430169 0.21658568
00000000: 6d09 de3d a393 2dbe 1e35 87be d76c 6ebe
00000010: 691f 923e 633c 36bd e7b4 033e 51d5 51be
00000020: 1412 95bd 201b 10be 8c0f a5be 281b 25be
00000030: 4e3e 2bbe 23e4 6abe c0d4 263e aad8 7b3e
00000040: 480f 6dbe 7655 7c3e 4455 8a3e c59e 3a3d
00000050: f6e3 9dbe de48 24be e5b3 433e edeb a93d
00000060: 9067 55bb cf01 693e 8f8a bdbd 8f74 13be
00000070: b64b 08bd 0f50 72bd f910 d8bb c7b1 be3d
00000080: 861d 0f3d bdda d73c a833 16bd b1e2 013e
00000090: 4196 bb3b 21a3 7abe f675 793e c8c6 573e
000000a0: 4776 a9bb f510 5e3e c422 813d b122 493e
000000b0: b97e 57be 923e 553e 2182 8c3d 819e 37be
000000c0: a903 bbbd 6489 65bd bca8 b0bc b4c4 e23d
000000d0: ddc0 27be d05a 1cbe dd4f 3d3b 874c cc3d
000000e0: a0b4 72bd 183e 8dbe ec6c 34be c215 22be
000000f0: 9790 573e 3ba1 96be 994c 203e ef78 463e
00000100: 769f 043d ade0 5f3e 5e54 b33d 4cc8 f13d
00000110: 7eb6 04be f4a8 35be dd37 a7bc 1f83 d03d
00000120: d595 023e 37bb b13d 0423 89be a67d 6d3e
00000130: b31e 85bd 331d 823e 9a57 47be 1618 17be
00000140: 041c 2ebd f551 8fbc 1384 153e 773e a5bd
00000150: a251 2d3d 9195 95be 14e5 29be afe3 1b3e
00000160: bf49 cb3e 82f8 473e a749 1d3e bffe 11be
00000170: aca8 e93c e11e ae3d 28c0 cc3d 931a 88be
00000180: 9366 b33d 02d9 043e 8b10 aabd c6ae 0e3e
00000190: 13ed 18be 8c89 89bd 4619 823e 0b04 bd3c
000001a0: b2db 55bd 345d 95be 23ba c3bd ed5b 9ebd
000001b0: 292b e7bd 18c7 27bd 7d1a 593e 7baf dabd
000001c0: 86ec 85be 7198 29be cbda 20be 44d5 1c3d
000001d0: 86fe a6bd c008 38bc 30e6 af3c 1058 283e
000001e0: 213e 783e 734a c2bd 8876 29be 5b36 3ebe
000001f0: a3a2 95bc 11a4 3cbe 5308 493e 1998 bc3d
00000200: f0c7 cebc 8a21 943c c141 c53d 7fc7 0b3c
00000210: 4ff7 0e3e ea21 1ebe ffd1 ee3c e65e 983e
00000220: f469 483b 6b0d af3d 90a9 44be bf92 b43d
00000230: 31ec 86bd e1fb 2e3e 8972 5a3c 343a c23d
00000240: d103 26bd 4aec 033e 9115 f63d 6576 1a3e
00000250: be0c 1a3d 873e 2e3d 6c45 ca3c de57 c7bd
00000260: 6b5e abbc 9678 9c3d d2c0 5dbe e286 3c3e
00000270: 8600 88bd 0f2d 9e3d 912b 2b3e 288e 18be
00000280: 3eb6 7cbe b157 0ebe 4bf9 edbd 174a b13d
00000290: a130 25bd ae19 a13e b114 53bd b875 8c3d
000002a0: ea51 983d ec38 9f3e 39ef 783d 1283 86be
000002b0: bcfa 6cbe 50b2 23be 6d12 4fbe 0301 7ebe
000002c0: 28e4 5cbe eb2e 183e 10da 9cbc 9d18 cabc
000002d0: 5b96 43be de36 3fbe 72b5 3fbd 55e3 743e
000002e0: cecc 01be b1a8 83be 6a4b 8dbd 6578 31bd
000002f0: 516b 923d e9e6 343e 38b8 a8bd 710f 06be
00000300: f774 18be b94b 43be b724 7fbd 9303 1a3d
00000310: ca4d 62be 882d 65bd 6e47 11be 7d7b 4a3e
00000320: aa30 3b3e ebaf 8ebd 68e5 d83d a3aa 0b3e
00000330: d235 0abe e5a9 06bc 6c04 fc3d 03e4 4cbe
00000340: 6659 59be a7d7 0ebe 1663 a6bd 6097 543e
00000350: 26a5 3b3e 6b3a e93d 2ae6 563e 9600 03be
00000360: 8c69 bebd c7b4 debd 8ed5 c73d ebb6 66be
00000370: 3fd7 7e3d 508f 2e3e 9e2e 90be c4b5 db3d
00000380: fde6 4fbe 4add fb3c 181d fbbd 06b8 123e
00000390: e6c5 a63e 21fe f33d 5171 41be 5ac6 7ebe
000003a0: 97e3 f83d f2e0 cf3d 7729 ad3d 0708 093e
000003b0: a84b 27be 3190 663e 736b 5e3d a3c8 5d3e

weight f4 [120, 240]
0.025004283 -0.081578754 -0.060162075 -0.006737122 -0.108302474 0.014090154 -0.07761533 0.054306835
0.06685944 -0.06881 0.007922189 0.01373099 -0.09424028 -0.08098296 -0.030644523 0.058901798
0.10001812 0.042662166 -0.08699196 -0.098244146 0.009123072 -0.012297809 -0.0873853 -0.06387949
0.0077474364 0.07054172 0.02883954 -0.07384992 -0.00096282654 -0.0053002494 0.08370583 -0.0139332265
-0.074918285 -0.044164162 -0.08231452 0.009413933 -0.032618716 -0.030671861 -0.058424395 -0.03842252
0.06795954 0.018714527 0.020006338 -0.07162844 -0.030739654 0.009077637 -0.025472436 0.021416655
0.003052972 0.008172171 -0.038422577 -0.026640255 0.0070474544 0.009045561 -0.062128976 0.017086664
-0.07888599 0.039823283 0.027798975 -0.0030665123 0.03361716 -0.038773134 -0.0058432757 0.08782385
0.08125138 -0.022254938 -0.016137145 -0.05081622 0.010200458 0.012199639 0.0405172 0.06644091
0.009157008 -0.0549968 -0.0075827376 0.01567572 -0.023143612 -0.065588295 0.02797179 0.101085156
-0.04789144 -0.03240131 -0.030992217 -0.014466942 0.033931594 0.01408472 0.019905072 0.026182018
-0.0402555 -0.014197831 0.009661911 -0.046981063 0.03673568 -0.006459648 -0.0029639876 0.047967017
0.020216696 0.083943844 0.062112335 0.017080428 -0.028050898 -0.061600156 0.05860514 0.0061564604
0.029479647 -0.056204915 -0.10306526 0.06280744 0.046916593 0.0025940288 0.01321298 -0.030441353
-0.03635212 0.104482256 0.106044464 0.04143171 -0.039089203 -0.13790853 -0.0031870194 -0.03445503
-0.10167833 -0.051593546 -0.06438186 -0.060323767 0.050987 0.07192084 -0.0008572448 -0.13011046
0.07409685 0.004186128 -0.007505397 0.038998216 -0.014768569 0.09666482 0.040183287 -0.048166163
-0.025984682 -0.072417244 0.08090733 0.09575566 -0.008950303 0.020094642 -0.022568204 -0.050070528
-0.017219711 0.14936855 -0.061764617 0.043408543 0.010461938 -0.030007897 -0.036540695 -0.0034534368
-0.06855003 0.0028424114 -0.027191713 -0.057804342 -0.03555522 0.05231221 -0.12135088 -0.0377024
0.0840668 0.041428186 0.020453315 -0.04055101 0.047563158 -0.024856038 0.04118759 0.036178112
-0.011289616 -0.031190705 -0.068343006 -0.04339827 -0.09523461 0.081955746 0.12351274 0.009139934
0.08853262 -0.03292926 0.047890823 0.03449362 0.09683962 0.009103919 0.067301475 -0.13443793
-0.042940054 0.042811885 -0.010068023 0.10614819 -0.05422188 0.048331674 0.008413658 0.13808568
0.023965593 -0.0970326 0.044919644 -0.043386493 0.06384697 -0.025426008 -0.028649246 -0.042561367
-0.03035955 0.031355478 -0.1101094 -0.05126328 -0.054293003 -0.1195104 -0.009473275 0.0039401622
0.062428348 -0.041529197 -0.04719842 -0.03603093 -0.09288516 0.089141 -0.016658632 -0.08250077
0.026055355 0.08280611 -0.025309067 -0.029047929 -0.01179558 -0.08940598 0.001622236 0.05329745
-0.06134198 0.0621772 0.05316479 0.020879176 -0.037765265 0.01053175 -0.014736076 0.025051624
0.00012943063 -0.015647253 -0.015522564 -0.0934629 -0.039822675 -0.072908595 0.037813764 0.036449995
0.037852008 0.024305398 -0.008565918 0.07797446 -0.049821902 0.026274227 -0.10340088 -0.01884919
0.05507533 -0.06310022 0.028982807 0.10347395 0.07903598 0.118259996 -0.029421499 0.079769365
00000000: c8d5 cc3c c312 a7bd 826c 76bd 13c3 dcbb
00000010: b0cd ddbd 64da 663c c9f4 9ebd d870 5e3d
00000020: 9aed 883d 42ec 8cbd 12cc 013c f2f7 603c
00000030: 0c01 c1bd 65da a5bd 390a fbbc 0343 713d
00000040: 4dd6 cc3d 86be 2e3d d728 b2bd 3a34 c9bd
00000050: f078 153c c07c 49bc 10f7 b2bd 40d3 82bd
00000060: 35de fd3b 2d78 903d e640 ec3c a03e 97bd
00000070: 3266 7cba b7ad adbb f66d ab3d 3048 64bc
00000080: c26e 99bd 7be5 34bd 8494 a8bd e63c 1a3c
00000090: 349b 05bd 8e43 fbbc 6b4e 6fbd ef60 1dbd
000000a0: 5f2e 8b3d 354f 993c 55e4 a33c eeb1 92bd
000000b0: bad1 fbbc 5fba 143c 92ab d0bc fb71 af3c
000000c0: 5f14 483b 92e4 053c fe60 1dbd aa3c dabc
000000d0: 55ee e63b d533 143c f47a 7ebd 55f9 8b3c
000000e0: fa8e a1bd bd1d 233d adba e33c 8af7 48bb
000000f0: 26b2 093d 94d0 1ebd f378 bfbb fedc b33d
00000100: 2067 a63d fd4f b6bc 0c32 84bc ab24 50bd
00000110: d21f 273c ffe0 473c 5df5 253d 2c12 883d
00000120: 4607 163c 5344 61bd 9d78 f8bb 5e6a 803c
00000130: ac97 bdbc 2853 86bd 1825 e53c bc05 cf3d
00000140: d129 44bd 3cb7 04bd 64e3 fdbc c106 6dbc
00000150: dbfb 0a3d 99c3 663c f60f a33c ac7b d63c
00000160: f3e2 24bd 059e 68bc fe4c 1e3c 376f 40bd
00000170: 2778 163d 74ab d3bb 763f 42bb 1079 443d
00000180: 7c9d a53c c0ea ab3d 8169 7e3d 41ec 8b3c
00000190: ffca e5bc 7250 7cbd f10b 703d 22bc c93b
000001a0: 4d7f f13c 2037 66bd e113 d3bd 30a1 803d
000001b0: 9d2b 403d 9500 2a3b 417b 583c 2560 f9bc
000001c0: f6e5 14bd cbfa d53d d72d d93d 4cb4 293d
000001d0: 001c 20bd e537 0dbe 50dd 50bb b820 0dbd
000001e0: ba3c d0bd c153 53bd a3da 83bd 0e16 77bd
000001f0: bfd7 503d 3c4b 933d bab8 60ba ad3b 05be
00000200: 17c0 973d c92b 893b d5ef f5bb 98bc 1f3d
00000210: def7 71bc 35f8 c53d 3b97 243d e249 45bd
00000220: d4dd d4bc 7e4f 94bd beb2 a53d 8b1b c43d
00000230: 4ba4 12bc 859d a43c f4e0 b8bc c116 4dbd
00000240: 5a10 8dbc 12f4 183e e5fc 7cbd 28cd 313d
00000250: 8c68 2b3c 1fd3 f5bc b2ab 15bd 0e53 62bb
00000260: f563 8cbd c047 3a3b 28c1 debc 3fc4 6cbd
00000270: 5aa2 11bd 5445 563d cf86 f8bd d56d 1abd
00000280: 372b ac3d 9ab0 293d b68d a73c d118 26bd
00000290: 96d1 423d e49e cbbc 52b4 283d 802f 143d
000002a0: 15f8 38bc a683 ffbc 6bf7 8bbd 62c2 31bd
000002b0: 5d0a c3bd 6ad8 a73d 3ff4 fc3d a9bf 153c
000002c0: 9750 b53d d5e0 06bd 2b29 443d 2f49 0d3d
000002d0: da53 c63d 9b28 153c 5bd5 893d 19aa 09be
000002e0: e9e1 2fbd 845b 2f3d 59f4 24bc 3964 d93d
000002f0: c317 5ebd 6ff7 453d 70d9 093c 5566 0d3e
00000300: 7e53 c43c 07b9 c6bd a9fd 373d 09b6 31bd
00000310: 33c2 823d 344a d0bc d3b1 eabc d454 2ebd
00000320: 97b4 f8bc 9a6e 003d 0981 e1bd 72f9 51bd
00000330: 5762 5ebd dec1 f4bd cc35 1bbc 7a1c 813b
00000340: deb4 7f3d 851a 2abd 2153 41bd 2b95 13bd
00000350: 933a bebd 8e8f b63d af77 88bc 2af6 a8bd
00000360: 0a72 d53c 4096 a93d f654 cfbc ecf5 edbc
00000370: 4042 41bc 7c1a b7bd 35a1 d43a 6d4e 5a3d
00000380: ba41 7bbd 85ad 7e3d 53c3 593d ce0a ab3c
00000390: c0af 1abd 5c8d 2c3c 956f 71bc 1039 cd3c
000003a0: c5b7 0739 ab2e 80bc 5a52 7ebc 7a69 bfbd
000003b0: 1a1d 23bd 1a51 95bd 9be2 1a3d 974c 153d
000003c0: b50a 1b3d 1d1c c73c 1058 0cbc 13b1 9f3d
000003d0: 0d12 4cbd 0c3d d73c d7c3 d3bd 9e69 9abc
000003e0: ab96 613d b03a 81bd 5a6d ed3c 26ea d33d
000003f0: 9edd a13d 4c32 f23d 5b05 f1bc 1f5e a33d

bias f4 [120]
-0.035833005 -0.24411704 -0.08178817 0.13999113 0.24961583 -0.066788375 -0.060344987 -0.030304415
0.0072747357 -0.17886789 -0.06489609 0.09298537 -0.11022035 -0.16956282 0.10370442 -0.09765623
-0.066602536 0.1734316 -0.0806451 -0.07300968 0.25745735 0.07294323 0.08501475 0.04935019
0.052209735 0.026146246 -0.0816711 -0.084107555 -0.21708225 0.10837195 0.09768702 0.050154883
-0.052299034 -0.037550196 -0.12724254 0.012193546 0.1479316 0.01959896 -0.060737666 0.1666595
0.006001988 -0.038561694 -0.01622101 0.058760878 0.085348696 0.19779389 0.10199965 -0.19265379
0.035545863 0.064992025 -0.02508028 -0.12759955 -0.21582001 0.17047833 0.11756996 -0.1277579
0.10049039 -0.0760198 -0.041141327 -0.2006553 -0.16978523 -0.058780625 0.119774856 0.09418278
-0.14364417 7.397901e-05 0.0064086956 -0.05864077 -0.075418696 -0.11251996 0.027163886 -0.1525468
-0.111498006 0.18482584 -0.120955735 0.07558678 0.014987725 0.07930465 -0.18578008 0.10427584
0.031462863 0.07753246 0.01925094 -0.054147195 0.030721663 0.09681539 -0.06566515 0.10153734
-0.10949537 0.10584933 0.110583745 -0.0847939 -0.1591764 0.1183242 -0.13551518 0.18632926
0.12119772 -0.029011406 -0.09861792 -0.15085201 0.016549999 0.09611498 -0.21088669 -0.042893123
0.10965071 -0.018237391 0.08336727 -0.16224088 0.16403063 0.0618346 0.07601259 -0.17507376
0.17879088 -0.10137513 -0.07133351 -0.049924854 0.024763567 0.04683524 -0.13576163 -0.0027317011
00000000: a1c5 12bd d1f9 79be 8e80 a7bd d659 0f3e
00000010: 4b9b 7f3e 58c8 88bd 4e2c 77bd f740 f8bc
00000020: e860 ee3b 2529 37be 3ee8 84bd 1d6f be3d
00000030: 35bb e1bd e0a1 2dbe fc62 d43d fdff c7bd
00000040: e966 88bd 0e98 313e 4229 a5bd 1986 95bd
00000050: 73d1 833e 4363 953d 371c ae3d 6d23 4a3d
00000060: e0d9 553d a730 d63c 2d43 a7bd 9540 acbd
00000070: cf4a 5ebe 1df2 dd3d 2210 c83d 356f 4d3d
00000080: 8337 56bd 3cce 19bd de4b 02be 70c7 473c
00000090: 627b 173e 008e a03c 0fc8 78bd caa8 2a3e
000000a0: 53ac c43b def2 1dbd ece1 84bc 3faf 703d
000000b0: 4ccb ae3d 7b8a 4a3e 31e5 d03d 0947 45be
000000c0: 8a98 113d 8a1a 853d 2975 cdbc 75a9 02be
000000d0: ecff 5cbe df91 2e3e 85c8 f03d f8d2 02be
000000e0: e8cd cd3d 45b0 9bbd cf83 28bd 9578 4dbe
000000f0: 2edc 2dbe f4c3 70bd 854c f53d e7e2 c03d
00000100: 7517 13be 2e25 9b38 0900 d23b 4e31 70bd
00000110: 1e75 9abd dd70 e6bd cc86 de3c 3a35 1cbe
00000120: 1159 e4bd fc42 3d3e a4b7 f7bd 3ecd 9a3d
00000130: 138f 753c 7a6a a23d 223d 3ebe 928e d53d
00000140: 34df 003d 57c9 9e3d 26b4 9d3c 73c9 5dbd
00000150: ffab fb3c 2647 c63d 737b 86bd cff2 cf3d
00000160: 1c3f e0bd 89c7 d83d bb79 e23d 6da8 adbd
00000170: 23ff 22be f553 f23d 7ec4 0abe 19cd 3e3e
00000180: 8336 f83d 54a9 edbc 31f8 c9bd f378 1abe
00000190: dd93 873c eed7 c43d aef2 57be b3b0 2fbd
000001a0: 8d90 e03d 9566 95bc 76bc aa3d 7922 26be
000001b0: a5f7 273e 4746 7d3d 7dac 9b3d 8946 33be
000001c0: f514 373e c49d cfbd 4e17 92bd 017e 4cbd
000001d0: f7dc ca3c 4fd6 3f3d 1905 0bbe 5706 33bb

weight f4 [92, 120]
-0.07347986 -0.29929885 0.06187095 -0.16150233 0.24402933 -0.24595976 0.30644375 -0.08683538
0.26995417 0.1107712 0.10296477 0.010945472 -0.17169939 0.0037311658 0.30989775 0.041068856
0.2941809 0.07536231 0.03742794 0.02752244 0.25230247 -0.05966436 0.09692498 0.27407232
0.2528895 -0.046353467 -0.26918516 -0.1362493 -0.31606677 -0.32876334 -0.0965851 -0.26716977
0.0507371 -0.26419315 -0.025516542 0.25980556 0.025480472 -0.27387372 -0.085812114 -0.032324433
-0.043376904 0.37567028 0.2591573 -0.07266765 -0.1224678 -0.15262726 0.25409907 -0.16577792
-0.028417248 -0.07653083 -0.09740981 0.1660525 -0.060897015 -0.35746455 0.123150066 -0.005941499
0.24835086 -0.12285736 0.14607483 -0.06367483 -0.22251561 -0.4517887 0.028516619 0.0005252923
0.23335704 -0.22531924 0.442833 -0.12783475 -0.013392304 0.19859882 -0.080384694 -0.11386122
0.30465966 0.22506991 -0.1061189 0.31751332 0.009842296 0.2176119 -0.28819904 0.19030397
-0.05573248 -0.13126805 -0.061027113 -0.04798254 0.15091448 0.30501056 0.2046447 0.11557589
0.066872954 -0.16829446 0.16757177 -0.35809952 0.24241272 -0.28587726 -0.005348475 0.05691237
0.032528937 -0.21531567 -0.0058367243 0.05169752 -0.101966605 0.045619193 0.2625083 -0.2636707
0.089418896 0.086626075 -0.22136444 -0.07765025 -0.092797995 0.24625477 0.2505141 -0.2525177
-0.10365871 -0.0685489 0.06484136 0.28810677 0.116666764 0.14835617 -0.30356815 -0.095488675
0.06328462 0.009049136 -0.01687775 -0.094947405 -0.036323316 -0.02816238 0.014934071 0.034177948
-0.08261912 0.087424785 -0.040265363 -0.054096747 -0.039127655 0.052990846 -0.08161445 0.06030098
0.10335194 -0.09291735 0.053055324 0.031597737 -0.013627062 0.019868629 0.060933225 -0.06326989
0.07538225 0.090948224 -0.032677084 0.05447374 0.13543694 -0.009521769 0.016268684 -0.09121362
0.06459643 -0.08575636 -0.036362488 0.066171534 -0.0005778787 -0.016335761 0.013184774 -0.117860354
0.064743295 -0.008175614 0.022976233 -0.047836397 0.062161952 -0.08637193 -0.04498892 -0.023310922
0.018376356 0.04597569 -0.085634105 0.10033053 0.046542533 0.018771002 -0.020972293 0.051547475
-0.10054611 0.0025289522 -0.02305776 -0.025417555 -0.022208514 0.008914807 -0.064387195 -0.10380144
0.0629727 -0.014677762 0.053611707 0.034348007 -0.005260817 0.06760061 -0.07232415 0.043898217
-0.056261346 -0.03057795 0.02645582 -0.0120965885 -0.027541308 -0.04418959 0.10622733 0.03127459
-0.028039401 -0.07761057 0.06401657 0.025551917 0.088465795 -0.015265646 0.09819451 -0.12186342
0.029857425 -0.07102959 -0.08853766 0.044377983 -0.0064261733 -0.09658352 0.10577547 -0.0681388
-0.047291107 0.08183304 0.061942633 -0.03562126 -0.022852007 0.054130044 0.034755062 0.07796339
-0.04823057 -0.03302718 0.06893987 -0.043439522 0.014338578 0.0077036894 -0.054065328 -0.0011995076
-0.06401056 0.063227214 0.06566991 0.08919743 0.05900211 -0.08509291 0.011517331 0.015461807
0.017310513 0.10014413 -0.023911074 -0.080575876 -0.1073812 -0.09072536 -0.048895907 0.03365749
-0.072803915 -0.015403103 0.033738345 0.03841519 0.045975845 0.012859045 -0.0723371 0.026141107
00000000: 9c7c 96bd b33d 99be 656c 7d3d de60 25be
00000010: d3e2 793e e0dc 7bbe 32e6 9c3e bfd6 b1bd
00000020: 6f37 8a3e 03dc e23d 31df d23d a354 333c
00000030: f7d1 2fbe 9386 743b ebaa 9e3e d137 283d
00000040: e19e 963e 8e57 9a3d 0a4e 193d bd76 e13c
00000050: ca2d 813e 9e62 74bd 9b80 c63d 3553 8c3e
00000060: bc7a 813e 22dd 3dbd a3d2 89be f084 0bbe
00000070: 81d3 a1be ab53 a8be 69ce c5bd 7aca 88be
00000080: b5d1 4f3d 5344 87be 1108 d1bc 3c05 853e
00000090: 6cbc d03c 2d39 8cbe 43be afbd a066 04bd
000000a0: fbab 31bd db57 c03e 44b0 843e c7d2 94bd
000000b0: 66d0 fabd 524a 1cbe 4619 823e b0c1 29be
000000c0: 4acb e8bc 32bc 9cbd cb7e c7bd ab09 2a3e
000000d0: 266f 79bd 9805 b7be 1a36 fc3d e8b0 c2bb
000000e0: b04f 7e3e a49c fbbd a494 153e f367 82bd
000000f0: 22db 63be d950 e7be af9b e93c c5b3 093a
00000100: 26f5 6e3e 16ba 66be 02bb e23e 1de7 02be
00000110: 656b 5bbc 7d5d 4b3e bba0 a4bd 1230 e9bd
00000120: 5afc 9b3e ba78 663e de54 d9bd 1b91 a23e
00000130: 9541 213c a7d5 5e3e d38e 93be 0bdf 423e
00000140: be47 64bd 226b 06be 91f7 79bd 5789 44bd
00000150: 5389 1a3e 582a 9c3e 618e 513e 0db3 ec3d
00000160: b0f4 883d 6255 2cbe ef97 2b3e d258 b7be
00000170: 0a3b 783e 815e 92be 4342 afbb f21c 693d
00000180: 103d 053d b67b 5cbe fe41 bfbb c7c0 533d
00000190: ded3 d0bd 31db 3a3d 7d67 863e d9ff 86be
000001a0: 4121 b73d 0369 b13d 5cad 62be 1807 9fbd
000001b0: e00c bebd 362a 7c3e 6243 803e 004a 81be
000001c0: 054b d4bd 5e63 8cbd 8ccb 843d bb82 933e
000001d0: fcee ee3d aeea 173e 496d 9bbe 918f c3bd
000001e0: 5e9b 813d d442 143c 3543 8abc c973 c2bd
000001f0: c2c7 14bd cbb4 e6bc 09ae 743c 2dfe 0b3d
00000200: 3734 a9bd c40b b33d 4bed 24bd 8d94 5dbd
00000210: 5244 20bd ee0c 593d 7a25 a7bd 29fe 763d
00000220: 2faa d33d 744b bebd 8a50 593d a16c 013d
00000230: 0a44 5fbc 89c3 a23c 1e95 793d a593 81bd
00000240: 0262 9a3d 1043 ba3d 68d8 05bd db1f 5f3d
00000250: fbaf 0a3e 3201 1cbc e745 853c 35ce babd
00000260: 224b 843d 08a1 afbd d5f0 14bd f184 873d
00000270: c87c 17ba 93d2 85bc f304 583c c560 f1bd
00000280: 2298 843d 03f3 05bc a738 bc3c 19f0 43bd
00000290: 889d 7e3d c4e3 b0bd 4d46 38bd 8cf6 bebc
000002a0: 038a 963c 0151 3c3d ef60 afbd 187a cd3d
000002b0: 62a3 3e3d a5c5 993c 16ce abbc 7223 533d
000002c0: 1eeb cdbd c7bc 253b a1e3 bcbc 7a38 d0bc
000002d0: a1ee b5bc 690f 123c 6fdd 83bd d995 d4bd
000002e0: d5f7 803d ff7a 70bc f397 5b3d 7fb0 0c3d
000002f0: ee62 acbb 3072 8a3d af1e 94bd 9ece 333d
00000300: 4c72 66bd 9c7e fabc e0b9 d83c c530 46bc
00000310: 4f9e e1bc 2500 35bd b78d d93d c919 003d
00000320: e3b2 e5bc 4af2 9ebd 1f1b 833d 4152 d13c
00000330: 8e2d b53d c31c 7abc 341a c93d 8793 f9bd
00000340: 8f97 f43c f677 91bd 3c53 b5bd b0c5 353d
00000350: a692 d2bb 95cd c5bd cfa0 d83d 5b8c 8bbd
00000360: 52b4 41bd 1598 a73d 8fb7 7d3d 99e7 11bd
00000370: 2234 bbbc 77b7 5d3d 535b 0e3d 45ab 9f3d
00000380: 6b8d 45bd 8247 07bd 5930 8d3d a4ed 31bd
00000390: 5bec 6a3c 3b6f fc3b 9b73 5dbd cc38 9dba
000003a0: f817 83bd 457d 813d f27d 863d 24ad b63d
000003b0: 32ac 713d 3145 aebd 30b3 3c3c 8553 7d3c
000003c0: c7ce 8d3c 5e18 cd3d 28e1 c3bc f704 a5bd
000003d0: adea dbbd 38ce b9bd 1347 48bd 70dc 093d
000003e0: 381a 95bd 4c5d 7cbc 3831 0a3d 3f59 1d3d
000003f0: 2b51 3c3d beae 523c 7925 94bd e025 d63c

bias f4 [92]
0.23834227 -0.056118276 -0.15869777 0.28925687 0.23885955 0.2243358 -0.14820732 0.39886248
0.17105658 0.09423174 0.22270048 0.11497011 0.38929924 -0.006437895 -0.018338392 0.25404683
-0.11409873 0.13078967 -0.055411413 0.08506168 -0.018600293 -0.15550879 0.12644841 -0.10270138
-0.015090893 -0.09142646 -0.16772708 0.27504978 0.32197767 0.11966519 -0.012296676 0.015776256
-0.004755052 -0.11013163 0.16914266 -0.035774462 -0.0634589 0.105521135 -0.027905539 0.3632587
0.2107171 -0.02182376 -0.013648169 -0.07067855 0.12349945 0.25558275 0.0061304527 0.060830507
0.29416585 -0.06711422 -0.09926834 -0.09144546 -0.09335243 -0.18993479 -0.13887747 -0.13341066
0.034570687 -0.044514894 0.09480732 -0.16878112 -0.08860298 -0.14834763 -0.14029226 -0.026238501
-0.0605764 -0.077589326 -0.1321887 -0.03928712 -0.15592323 -0.108802244 -0.16127023 -0.01505779
-0.16563898 -0.06381252 -0.05811381 -0.18236917 -0.052727137 -0.06299753 -0.15591611 -0.07130198
-0.032386836 -0.13723749 -0.10770773 -0.039450962 -0.1718484 -0.02619855 -0.028637452 0.084533826
0.15460631 -0.06456834 0.0712965 -0.09030581
00000000: ff0f 743e 47dc 65bd ab81 22be 7a19 943e
00000010: 9997 743e 49b8 653e a9c3 17be b437 cc3e
00000020: 7529 2f3e 92fc c03d 980b 643e 7375 eb3d
00000030: 3b52 c73e faf4 d2bb 653a 96bc 6d12 823e
00000040: 98ac e9bd baed 053e 14f7 62bd d134 ae3d
00000050: a45f 98bc b23d 1fbe b17b 013e 1a55 d2bd
00000060: cb3f 77bc cc3d bbbd a6c0 2bbe 53d3 8c3e
00000070: 42da a43e 0613 f53d ff77 49bc 353d 813c
00000080: 44d0 9bbb b18c e1bd bc33 2d3e 3e88 12bd
00000090: bdf6 81bd 771b d83d 289a e4bc 0bfd b93e
000000a0: 39c6 573e bec7 b2bc 929c 5fbc eabf 90bd
000000b0: 48ed fc3d bedb 823e f7e1 c83b 6929 793d
000000c0: e89c 963e 2e73 89bd 334d cbbd c247 bbbd
000000d0: 8f2f bfbd 447e 42be e535 0ebe ce9c 08be
000000e0: fe99 0d3d 4055 36bd 572a c23d f5d4 2cbe
000000f0: 7b75 b5bd 71e8 17be c6a8 0fbe 20f2 d6bc
00000100: f61e 78bd 27e7 9ebd 795c 07be 88eb 20bd
00000110: 57aa 1fbe b6d3 debd 0624 25be f3b4 76bc
00000120: 449d 29be 23b0 82bd bf08 6ebd fcbe 3abe
00000130: 69f8 57bd d904 81bd 79a8 1fbe c606 92bd
00000140: 0fa8 04bd fc87 0cbe df95 dcbd 5597 21bd
00000150: 07f9 2fbe 579e d6bc 1799 eabc 1220 ad3d
00000160: 1e51 1e3e 683c 84bd e603 923d 41f2 b8bd
