data/tbspp.pth (torch_old, 254441 bytes, 6 tensors)

weight f4 [240, 90]
-0.042913437 -0.0050911284 0.049775943 -0.09531641 -0.104038574 0.045044523 0.01143367 0.011489501
0.024837509 0.04069314 -0.029937599 -0.04255001 0.08236372 -0.051919024 -0.015314432 0.09202406
-0.07493469 0.071631044 -0.04915975 0.060036227 -0.023509765 -0.088907436 0.0038266014 0.065751605
0.063632786 -0.010294857 -0.06718016 -0.008051314 0.02598672 0.08498637 -0.10728851 0.043458242
0.0526604 -0.030757483 -0.05639419 -0.039114688 0.06702044 0.0031910215 0.07767571 0.023972318
-0.049003713 -0.0006134988 -0.024100363 -0.024014879 0.050941247 -0.012538989 0.07788863 -0.09402286
0.020035706 0.08370092 0.029289404 0.0077905934 0.010400179 -0.00456163 0.0006392275 0.022222873
-0.005666272 0.06172048 -0.07260602 0.023647573 -0.043977633 -0.0805949 -0.031382587 0.09502528
0.0063295146 0.0012782046 -0.09373133 0.007978834 0.032049213 -0.080096014 -0.0039001754 0.054250367
0.034974642 0.10789789 0.0066789226 -0.042792343 0.081627116 -0.0705557 -0.08565594 0.0672583
0.012627336 -0.06037248 -0.015296347 0.028499376 -0.042380817 0.035532992 0.061337456 0.0026304724
-0.108951285 0.04694042 0.030357076 -0.029212413 0.023596521 0.084563 -0.038000103 -0.08328396
-0.097981155 -0.008237447 -0.00831315 0.047042515 -0.016486418 0.07505903 -0.0075077415 -0.04665171
-0.08546114 0.1086867 0.029567253 0.088708065 -0.018156243 -0.014704581 -0.03260279 0.025403675
0.09847303 -0.01328501 -0.024574466 0.0064597037 -0.04551782 0.013422946 -0.027394496 -0.013964473
0.093002364 0.07718268 0.03916599 -0.07888384 -0.10470655 -0.1023738 0.036933534 0.0101941805
0.015006978 0.07951666 0.044103112 -0.09991446 0.06616272 0.08559426 0.038627334 0.088795885
0.00069878704 -0.105602615 -0.046834268 0.016911257 -0.061431047 0.023813887 -0.0008138797 -0.10058542
-0.009762773 0.021930946 -0.10504236 0.07957049 0.021185255 0.027034955 0.07654958 0.020332944
0.08441024 -0.0036545128 0.10174552 0.06206129 0.06407641 0.079363495 0.07142797 0.05093482
-0.06673287 -0.017421536 -0.01609927 -0.109878555 -0.086792156 0.06933088 -0.027920883 0.04089101
-0.059270263 0.007470192 -0.08412821 -0.09340187 0.05712354 0.011020545 0.00043973722 0.063394755
-0.08404414 -0.008365136 0.028648522 0.06701172 -0.107682355 0.050749164 -0.05359621 0.04009081
-0.0831982 0.031188564 -0.0009745446 -0.043945804 0.040270932 0.0771136 -0.05996277 -0.0037936724
0.08936257 -0.08307319 -0.06494056 -0.060655355 0.099092044 0.092893474 -0.023891572 0.09451121
0.023137122 0.009590568 -0.0475331 -0.051159397 -0.07904479 -0.10692446 0.03704208 -0.054244533
-0.006928965 -0.047349125 0.044908803 -0.087630756 0.068075255 0.055132803 0.08790454 -0.077845864
0.09696199 0.08299782 -0.035803966 -0.062065218 -0.030304663 -0.073497035 0.069296785 -0.05562992
-0.008374927 0.038740765 -0.101735026 0.07010223 0.043580975 0.09246926 0.02200096 0.02626244
0.014353308 -0.010818529 -0.06447183 0.058870185 0.051976338 0.0909681 0.029272955 -0.025754668
0.020398965 -0.051601868 0.043545835 0.0266945 0.07222926 -0.07494668 0.05293771 0.024926307
0.10904481 -0.09955858 0.11056826 0.10412566 -0.08042264 0.001482072 -0.063254565 0.09103026
00000000: 00c6 2fbd 7bd3 a6bb dce1 4b3d 4035 c3bd
00000010: 2d12 d5bd 9b80 383d 4a54 3b3c 763e 3c3c
00000020: 0878 cb3c daad 263d b23f f5bc eb48 2ebd
00000030: 4fae a83d 0ba9 54bd 62e9 7abc 1c77 bc3d
00000040: 5c77 99bd 4cb3 923d bc5b 49bd 8ce8 753d
00000050: 8d97 c0bc 1a15 b6bd b8c7 7a3b c7a8 863d
00000060: e851 823d c3ab 28bc c095 89bd a9e9 03bc
00000070: 1ae2 d43c 550d ae3d 14ba dbbd 4501 323d
00000080: 6eb2 573d 1ef7 fbbc 98fd 66bd b936 20bd
00000090: 0342 893d 7520 513b 7114 9f3d 9861 c43c
000000a0: 1eb8 48bd 35d3 20ba 206e c5bc daba c4bc
000000b0: c5a7 503d 5570 4dbc 1384 9f3d 0f8f c0bd
000000c0: ec21 a43c 636b ab3d 55f0 ef3c 3c48 ff3b
000000d0: 8365 2a3c ba79 95bb d591 273a be0c b63c
000000e0: 22ac b9bb 9dce 7c3d 77b2 94bd 8eb8 c13c
000000f0: e421 34bd f00e a5bd 078b 00bd 9d9c c23d
00000100: d167 cf3b 6e89 a73a 36f6 bfbd a8b9 023c
00000110: 0946 033d 6109 a4bd 169a 7fbb a235 5e3d
00000120: 9241 0f3d 92f9 dc3d ddda da3b 0647 2fbd
00000130: 1e2c a73d 827f 90bd 626c afbd b8be 893d
00000140: e3e2 4e3c 2249 77bd 889d 7abc 8677 e93c
00000150: 8297 2dbd 0b8b 113d fc3c 7b3d 0164 2c3b
00000160: da21 dfbd 9944 403d 67af f83c df4e efbc
00000170: 7e4d c13c 5e2f ad3d ffa5 1bbd c890 aabd
00000180: 58aa c8bd 5bf6 06bc e133 08bc a7af 403d
00000190: 860e 87bc 8cb8 993d 8003 f6bb dd15 3fbd
000001a0: 4006 afbd 2297 de3d 0637 f23c 93ac b53d
000001b0: 67bc 94bc 7ceb 70bc 818a 05bd 5e1b d03c
000001c0: 3aac c93d 5fa9 59bc 6450 c9bc ecab d33b
000001d0: e570 3abd ebeb 5b3c 6c6a e0bc 3fcb 64bc
000001e0: 0678 be3d f411 9e3d 846c 203d da8d a1bd
000001f0: 6370 d6bd 5ba9 d1bd 9e47 173d 7e05 273c
00000200: d4df 753c a1d9 a23d 77a5 343d f49f ccbd
00000210: 5280 873d 0b4c af3d b237 1e3d 9eda b53d
00000220: ce2e 373a 2f46 d8bd 4ad5 3fbd 7a89 8a3c
00000230: 1f9f 7bbd 5715 c33c 8b5a 55ba bbff cdbd
00000240: 0af4 1fbc 87a8 b33c 7320 d7bd daf5 a23d
00000250: b38c ad3c 6978 dd3c 07c6 9c3d 4691 a63c
00000260: 47df ac3d 8d80 6fbb f55f d03d fb33 7e3d
00000270: 7e3a 833d 5489 a23d d448 923d 08a1 503d
00000280: 3eab 88bd 9cb7 8ebc 9ee2 83bc 0208 e1bd
00000290: 16c0 b1bd 59fd 8d3d 56ba e4bc 557d 273d
000002a0: 60c5 72bd 83c8 f43b 694b acbd 7b49 bfbd
000002b0: 60fa 693d 848f 343c 888c e639 1cd5 813d
000002c0: 561f acbd ec0d 09bc 4eb0 ea3c 713d 893d
000002d0: 9188 dcbd 5bde 4f3d b387 5bbd 4336 243d
000002e0: d163 aabd 297f ff3c 9578 7fba 8400 34bd
000002f0: 22f3 243d bced 9d3d 869b 75bd 439f 78bb
00000300: b903 b73d 4722 aabd 8eff 84bd c071 78bd
00000310: c5f0 ca3d ef3e be3d 42b8 c3bc 188f c13d
00000320: 108a bd3c c221 1d3c 11b2 42bd 848c 51bd
00000330: 3ce2 a1bd 36fb dabd 70b9 173d 842f 5ebd
00000340: 5f0c e3bb 28f1 41bd 4bf2 373d c177 b3bd
00000350: 0a6b 8b3d efd2 613d 4c07 b43d a76d 9fbd
00000360: 0294 c63d c3fa a93d 2ea7 12bd 1938 7ebd
00000370: 7c41 f8bc 9d85 96bd 79eb 8d3d 33dc 63bd
00000380: fd36 09bc a3ae 1e3d 745a d0bd c291 8f3d
00000390: f781 323d 8660 bd3d 5b3b b43c 5424 d73c
000003a0: 232a 6b3c 3340 31bc cf09 84bd dd21 713d
000003b0: 24e5 543d 7c4d ba3d d6cd ef3c 74fb d2bc
000003c0: bb1b a73c 7b5c 53bd 1e5d 323d 6dae da3c
000003d0: efec 933d a57d 99bd 36d5 583d 4132 cc3c
000003e0: e352 df3d 5ee5 cbbd 9d71 e23d d63f d53d
000003f0: a0b4 a4bd 1642 c23a 9c8b 81bd 136e ba3d

bias f4 [240]
-0.026108636 0.09641033 0.13119575 -0.10841079 -0.09408484 -0.06895736 0.071230605 -0.053475223
0.04878925 -0.03137551 -0.037460394 -0.012635939 0.09853169 0.038279276 -0.046868306 0.0018682225
-0.07695463 -0.052651476 -0.017666481 0.06323131 0.040665854 0.09395748 -0.086713985 -0.08836474
0.00035995868 0.1083418 -0.09159393 -0.070737466 -0.041155424 0.056342386 0.028504247 0.10129129
0.07856133 0.08337493 -0.0029172627 0.106806226 0.11249961 0.0333652 0.07413656 0.025473211
0.037005123 0.06501528 0.038591236 -0.009823844 0.021188049 0.016540958 0.07046168 -0.07128863
-0.0627369 -0.0054160217 -0.11333812 -0.034715664 -0.020463658 0.09127387 -0.06547809 0.041119896
-0.07306295 -0.046783537 0.05481321 0.056114458 0.07968076 -0.0057222997 -0.038255922 -0.13279076
-0.085201465 -0.03853625 0.00821517 -0.015825938 0.071598545 -0.11187524 -0.033162493 -0.06062188
-0.010086552 -0.037869196 -0.025244385 0.059828956 -0.0706663 0.003727815 0.04816179 -0.011341104
0.0061298925 0.06047957 0.004035082 -0.042990584 0.044174626 0.10150627 -0.077321865 -0.047643486
-0.10492299 -0.030867495 0.0889949 -0.0036150417 -0.0837318 0.095010124 0.08291522 0.051176377
0.113927856 0.09726654 0.054423798 0.06114838 0.020218208 -0.0284809 0.038268898 -0.020750815
-0.09889857 0.027334202 0.009823232 0.07781476 -0.09183502 0.010983731 0.12210461 -0.08926379
0.019168947 0.076924585 -0.061699476 0.1065709 0.07717879 -0.018856425 0.014727455 0.043807186
0.00024623625 0.025396576 -0.01813129 0.0973755 0.112202205 0.08813766 -0.13017833 -0.012086504
0.07267498 0.10133734 -0.02163966 0.0424373 0.012950236 0.081554815 0.11224598 -0.03857785
-0.030815931 0.060949225 -0.0414441 -0.07370731 -0.004303929 0.05064978 0.041670345 0.018680414
0.06823778 -0.098052874 -0.09008063 0.033814795 -0.036954388 0.035527438 0.07879724 -0.055899095
0.036901537 -0.08210198 0.05848973 -0.066295154 0.07198999 -0.09175566 0.11962197 -0.11327147
0.07653132 0.12132213 0.08687276 -0.06490985 -0.010568087 0.066340476 0.017319744 -0.07358491
0.07925093 -0.064910494 -0.005661271 -0.06036325 -0.04492581 -0.05054075 -0.010690918 -0.05472329
-0.10423852 0.09784018 0.04733953 0.038023025 0.03304556 -0.07836222 0.0075630047 -0.027115192
0.006298791 0.11376153 0.08430165 -0.056300946 -0.058495555 -0.07644469 -0.049780928 -0.07391366
-0.08089266 -0.081665486 -0.001587704 -0.07381964 0.02484035 0.097132854 -0.0013236165 0.029864056
0.07749283 -0.023847053 -0.113215685 -0.08402989 0.118001364 0.03254953 -0.050220665 0.040669814
-0.12478737 -0.04648073 0.046781547 -0.061275057 0.024051022 -0.077949844 -0.05811282 0.09939036
-0.09354845 -0.0883388 -0.08030215 0.11468845 -0.11588485 0.09097101 -0.046287406 -0.07997768
-0.11541796 -0.054973193 0.00070300937 0.077506125 0.062603146 0.08261325 0.10161062 0.02300191
-0.038046185 0.016723556 -0.0036138603 -0.09518884 0.008291521 0.10868745 -0.048334576 0.00057754084
00000000: c7e1 d5bc c772 c53d 2e58 063e 7a06 debd
00000010: 8daf c0bd 8439 8dbd 5ae1 913d d608 5bbd
00000020: 3dd7 473d 9b83 00bd 1270 19bd f806 4fbc
00000030: fcca c93d bbca 1c3d fbf8 3fbd 25df f43a
00000040: 649a 9dbd 13a9 57bd 4cb9 90bc 6b7f 813d
00000050: 3d91 263d c76c c03d 1a97 b1bd 93f8 b4bd
00000060: d6b8 bc39 4ee2 dd3d 9995 bbbd cede 90bd
00000070: 9792 28bd 46c7 663d bd81 e93c cf71 cf3d
00000080: c3e4 a03d 7ac0 aa3d 8c2f 3fbb 39bd da3d
00000090: 3266 e63d f3a9 083d e9d4 973d 32ad d03c
000000a0: af92 173d bb26 853d d811 1e3d 30f4 20bc
000000b0: 8f92 ad3c e780 873c 374e 903d c6ff 91bd
000000c0: 347c 80bd e278 b1bb d11d e8bd 0332 0ebd
000000d0: 67a3 a7bc cbed ba3d 6019 86bd 566d 283d
000000e0: 07a2 95bd 18a0 3fbd d183 603d 46d8 653d
000000f0: ab2f a33d 2182 bbbb 3eb2 1cbd 4dfa 07be
00000100: 1b7e aebd 30d8 1dbd ec98 063c 66a5 81bc
00000110: 42a2 923d d91e e5bd 65d5 07bd a64e 78bd
00000120: 1142 25bc bb1c 1bbd 50cd cebc 350f 753d
00000130: 7eb9 90bd 5c4e 743b 4c45 453d 0ad0 39bc
00000140: 44dd c83b 6db9 773d b938 843b e516 30bd
00000150: 74f0 343d 85e2 cf3d ed5a 9ebd d125 43bd
00000160: dde1 d6bd d4dd fcbc f542 b63d 56ea 6cbb
00000170: 947b abbd ab94 c23d 74cf a93d 529e 513d
00000180: 0253 e93d ae33 c73d 7deb 5e3d b976 7a3d
00000190: a8a0 a53c c750 e9bc d9bf 1c3d 9dfd a9bc
000001a0: 558b cabd faeb df3c 9ff1 203c 585d 9f3d
000001b0: 0014 bcbd 1bf5 333c fb11 fa3d efcf b6bd
000001c0: 3208 9d3c a38a 9d3d 97b8 7cbd d841 da3d
000001d0: ea0f 9e3d ca78 9abc 6c4b 713c 2a6f 333d
000001e0: 4519 8139 7b0c d03c 1288 94bc ce6c c73d
000001f0: 45ca e53d 8481 b43d 784d 05be 7906 46bc
00000200: 9fd6 943d f489 cf3d a845 b1bc bcd2 2d3d
00000210: 3a2d 543c 3606 a73d 38e1 e53d cf03 1ebd
00000220: b171 fcbc e5a5 793d 4ac1 29bd dcf3 96bd
00000230: f907 8dbb 2576 4f3d 86ae 2a3d ab07 993c
00000240: 40c0 8b3d f2cf c8bd 317c b8bd 6281 0a3d
00000250: 7c5d 17bd 3885 113d 7360 a13d 73f6 64bd
00000260: 1126 173d 1525 a8bd ed92 6f3d c1c5 87bd
00000270: 7d6f 933d 64ea bbbd 5dfc f43d dffa e7bd
00000280: 74bc 9c3d bd77 f83d 58ea b13d 75ef 84bd
00000290: c525 2dbc 84dd 873d 23e2 8d3c afb3 96bd
000002a0: 504e a23d cbef 84bd 2f82 b9bb 753f 77bd
000002b0: 2004 38bd d103 4fbd f628 2fbc 8725 60bd
000002c0: 017b d5bd 6f60 c83d 18e7 413d 08be 1b3d
000002d0: c85a 073d 5f7c a0bd 15d3 f73b ae20 debc
000002e0: 1766 ce3b cefb e83d 58a6 ac3d d29b 66bd
000002f0: 0999 6fbd 098f 9cbd 16e7 4bbd 0c60 97bd
00000300: 0dab a5bd 3c40 a7bd 821a d0ba c02e 97bd
00000310: fd7d cb3c 97ed c63d 337d adba 77a5 f43c
00000320: 90b4 9e3d e55a c3bc a0dd e7bd dd17 acbd
00000330: b3aa f13d a852 053d 2fb4 4dbd 6495 263d
00000340: 8590 ffbd 9462 3ebd 029e 3f3d 8efb 7abd
00000350: a606 c53c 2ba4 9fbd b507 6ebd 2c8d cb3d
00000360: 5496 bfbd f9ea b4bd 7475 a4bd c7e1 ea3d
00000370: 0955 edbd 024f ba3d dd97 3dbd 57cb a3bd
00000380: 4060 ecbd 922b 61bd 294a 383a 88bb 9e3d
00000390: 1436 803d 2331 a93d 3b19 d03d 806e bc3c
000003a0: 51d6 1bbd d7ff 883c 84d6 6cbb 5ef2 c2bd
000003b0: 29d9 073c 8797 de3d 7afa 45bd 1c66 173a

weight f4 [120, 240]
0.012063685 -0.019012947 -0.059849836 0.0066319685 -0.037503496 0.0061999825 0.06694812 -0.004209428
-0.053973902 0.01212395 0.016357398 -0.047346033 -0.018142471 -0.04338015 -0.026581775 0.061254945
0.016735403 -0.048058882 0.057793904 0.00394463 -0.051566172 0.07214247 0.060179677 0.06997308
0.06674141 -0.00962042 -0.0019985507 -0.046321083 -0.032937396 -0.046621904 -0.05265233 0.010027725
0.014561474 -0.018827064 -0.042074386 -0.042665165 -0.052206174 -0.054867204 -0.006901752 -0.040446278
0.06859961 0.028472302 0.0032153628 0.037601274 -0.05149848 0.05885088 0.015973063 0.023498083
0.014766525 0.053575486 0.021630751 0.036315825 0.010009443 -0.08768088 0.020736199 -0.011339419
0.068011984 0.059307173 -0.06680289 -0.054756463 -0.008659778 -0.042694226 0.06678225 0.042641543
0.018251928 0.018714888 -0.04159483 0.014537511 0.0018116027 0.033991665 -0.011388284 0.07873248
-0.01090089 0.010459187 0.02030042 -0.060913704 -0.056457534 -0.03615038 0.056868855 -0.021407241
-0.0010619716 0.04852426 0.022180801 0.008727147 0.033173427 0.037574902 0.026595524 0.041764423
0.045287542 0.036121555 -0.030319551 -0.07133798 -0.012687411 0.020462375 0.027274767 0.07888449
0.019812133 0.060527362 0.012031897 -0.058515318 0.061322648 0.04542719 0.044378735 -0.022679284
-0.028596064 -0.060532473 0.010944509 0.0019324163 0.02976022 -0.021514254 -0.08148965 -0.014859975
0.046325665 -0.043263078 -0.0067018387 -0.025276087 -0.012997742 -0.036318723 -0.0047098906 -0.03323415
0.055591132 0.04456996 0.01970918 -0.012514527 -0.05035679 -0.0334924 0.05368072 0.012574661
-0.034726933 -0.04406574 0.045965042 -0.017717239 -0.06676945 -0.036042184 -0.04028771 -6.531871e-05
0.033393767 0.03538498 -0.036902186 0.03181679 -0.0060236254 -0.07232966 -0.030497741 0.0051642694
-0.019348674 -0.03250711 0.012110532 -0.002398099 0.00043449804 0.059669077 -0.055685136 0.0015439313
0.01660234 0.052950323 -0.058146205 -0.034392536 0.030592583 -0.025807371 0.057736818 0.055433046
0.025307465 -0.067309104 -0.05688705 0.044980757 0.018657079 -0.06362385 0.01244865 0.0049875537
-0.0051674936 0.02971431 0.014953842 -0.042602547 0.049647383 0.069005884 -0.030469554 0.016721541
-0.016404795 0.08153955 0.080024414 -0.057145294 -0.008611883 0.02448883 0.025894137 0.042196784
0.0027810025 -0.046538904 0.01910889 0.011600697 0.003961703 0.023506666 0.0698758 0.04606312
0.010985194 0.01054057 -0.045695446 -0.002767432 -0.029281508 -0.01785847 -0.033012412 -0.038407896
-0.075031415 0.058352023 -0.021559741 0.04696471 -0.005837163 0.047558352 -0.06606366 -0.032789405
0.05827714 -0.009781843 -0.00817003 0.029037781 0.008643485 0.052140422 -0.01903157 0.024244368
0.009870779 0.0832282 -0.055601325 -0.0020526254 -0.0012399888 -0.005563269 0.02525866 0.043821994
0.043475647 0.04106242 0.054336954 -0.032318488 0.06862025 -0.043876134 -0.06504131 0.06551671
0.03987302 -0.029030994 0.05278904 -0.048559472 -0.01081535 0.03489618 -0.04571682 0.04465143
-0.05770767 0.056013364 -0.052292455 0.028212355 0.041553702 -0.01763939 -0.04132294 -0.021864748
-0.023609577 0.04868222 0.027581105 -0.040179368 0.0021548062 -0.065746814 -0.011831492 0.028576825
00000000: c3a6 453c 0ac1 9bbc 1a25 75bd fc50 d93b
00000010: 449d 19bd 3929 cb3b 191c 893d 3eef 89bb
00000020: bd13 5dbd 88a3 463c f3ff 853c eaed 41bd
00000030: 859f 94bc 62af 31bd 06c2 d9bc 77e6 7a3d
00000040: af18 893c 64d9 44bd 4db9 6c3d f441 813b
00000050: 0d37 53bd 6ebf 933d f77e 763d 0c4e 8f3d
00000060: b8af 883d f79e 1dbc 1efa 02bb 2dbb 3dbd
00000070: 5de9 06bd 9cf6 3ebd f8a9 57bd 544b 243c
00000080: 4093 6e3c 373b 9abc 3156 2cbd abc1 2ebd
00000090: 24d6 55bd 6fbc 60bd 1828 e2bb ffaa 25bd
000000a0: f47d 8c3d bf3e e93c d6b8 523b cb03 1a3d
000000b0: 12f0 52bd 9f0d 713d f1d9 823c 0d7f c03c
000000c0: 4bef 713c f871 5b3d f932 b13c e7bf 143d
000000d0: a6fe 233c 0992 b3bd f6de a93c f8c8 39bc
000000e0: de49 8b3d 14ec 723d f4cf 88bd 5048 60bd
000000f0: bee1 0dbc 24e0 2ebd 22c5 883d e6a8 2e3d
00000100: 1185 953c f74f 993c 575f 2abd be2e 6e3c
00000110: 4d73 ed3a d83a 0b3d ed95 3abc 7f3e a13d
00000120: a699 32bc 035d 2b3c 114d a63c a680 79bd
00000130: 0440 67bd 6c12 14bd 51ef 683d 3d5e afbc
00000140: db31 8bba 60c1 463d 83b4 b53c 4ffc 0e3c
00000150: dce0 073d 24e8 193d dbde d93c 2c11 2b3d
00000160: 6e7f 393d 32f4 133d b560 f8bc a619 92bd
00000170: dcde 4fbc b6a0 a73c 556f df3c 318e a13d
00000180: 0e4d a23c 8aeb 773d 6f21 453c c2ad 6fbd
00000190: 752d 7b3d dc11 3a3d 7ac6 353d e8c9 b9bc
000001a0: 4b42 eabc e6f0 77bd 9950 333c 2249 fd3a
000001b0: b4cb f33c a93e b0bc 0ce4 a6bd 4177 73bc
000001c0: fbbf 3d3d a034 31bd 199b dbbb cc0f cfbc
000001d0: 7bf4 54bc f1c2 14bd 6d55 9abb 8820 08bd
000001e0: 87b3 633d fe8e 363d 2575 a13c bb09 4dbc
000001f0: ec42 4ebd 542f 09bd 51e0 5b3d f305 4e3c
00000200: d43d 0ebd 477e 34bd d745 3c3d be23 91bc
00000210: 6cbe 88bd f8a0 13bd ba04 25bd b7fb 88b8
00000220: e7c7 083d d7ef 103d bf26 17bd 5352 023d
00000230: d561 c5bb 9321 94bd 66d6 f9bc 0839 a93b
00000240: 1c81 9ebc 2d26 05bd 416b 463c 6d29 1dbb
00000250: 57cd e339 9067 743d 1916 64bd bd5d ca3a
00000260: a101 883c 70e2 583d b72a 6ebd 30df 0cbd
00000270: 4c9d fa3c fb69 d3bc 717d 6c3d c30d 633d
00000280: 9a51 cf3c 5bd9 89bd 6502 69bd be3d 383d
00000290: bbd6 983c 394d 82bd 6cf5 4b3c a26e a33b
000002a0: 1454 a9bb 6d6b f33c f600 753c 0280 2ebd
000002b0: 0e5b 4b3d f552 8d3d 499b f9bc 9dfb 883c
000002c0: 5963 86bc 35fe a63d d7e3 a33d 2f11 6abd
000002d0: db18 0dbc cc9c c83c f11f d43c 89d6 2c3d
000002e0: 7b41 363b 949f 3ebd 3f8a 9c3c da10 3e3c
000002f0: 2cd1 813b 0d91 c03c 0b1b 8f3d afac 3c3d
00000300: 3efb 333c 5bb2 2c3c 262b 3bbd ce5d 35bb
00000310: c6df efbc ed4b 92bc 0638 07bd 9951 1dbd
00000320: 12aa 99bd 8802 6f3d 0e9e b0bc 115e 403d
00000330: ac45 bfbb 8ccc 423d 624c 87bd 2f4e 06bd
00000340: 03b4 6e3d 0644 20bc 97db 05bc a4e0 ed3c
00000350: 679d 0d3c 3291 553d 18e8 9bbc 209c c63c
00000360: 0cb9 213c 8c73 aa3d 37be 63bd 5785 06bb
00000370: 1f87 a2ba 154c b6bb 40eb ce3c b17e 333d
00000380: 8513 323d 1131 283d 6d90 5e3d 6460 04bd
00000390: c688 8c3d 76b7 33bd 6134 85bd a02d 863d
000003a0: e451 233d 68d2 edbc 5239 583d 4ce6 46bd
000003b0: de32 31bc 4cef 0e3d 8f41 3bbd 6be4 363d
000003c0: e15e 6cbd 456e 653d 9d30 56bd 991d e73c
000003d0: 3734 2a3d 7b80 90bc 3e42 29bd b31d b3bc
000003e0: df68 c1bc 0267 473d c5f1 e13c 1f93 24bd
000003f0: a637 0d3b 44a6 86bd e0d8 41bc f219 ea3c

bias f4 [120]
0.007882897 -0.036105253 0.034619655 0.012486788 -0.009511724 -0.0433642 -0.028529197 -0.038986977
0.0029541703 -0.089978255 -0.009499551 -0.014456793 0.028526643 0.04265608 -0.041353755 -0.08778754
0.004292288 0.023199191 -0.06955195 0.023558516 -0.100519195 0.020579334 -0.04914473 0.002239482
-0.042314116 -0.07541234 -0.068382956 0.020651683 -0.06587023 -0.08535475 -0.11844051 -0.017727293
-0.014530879 -0.057208877 -0.00394361 -0.005171843 0.03037057 -0.048925765 -0.084053144 0.019340733
0.01920427 0.035481453 0.04897254 -0.07416517 -0.0033420122 -0.07234211 -0.07370734 -0.01564796
-0.0216935 -0.044390883 -0.05526079 0.014553364 -0.027712151 -0.10342658 -0.07533847 -0.009412975
-0.08191938 -0.07083027 -0.07453628 0.013566789 -0.018206406 -0.04550938 -0.08202489 -0.018947281
-0.053179413 0.021035852 -0.045094345 -0.07942174 0.024781581 0.020148063 0.010277208 -0.012632488
-0.10719996 -0.034392238 0.01219735 0.0048576854 -0.05110649 -0.03111225 0.0008403882 -0.06008704
0.023017144 0.0023678644 -0.07157283 0.03650556 0.034864 -0.016722322 0.024337085 -0.06356644
-0.09123008 -0.10508477 -0.02787092 -0.05146919 0.03572119 -0.036593094 -0.06162628 0.037690457
-0.05882076 -0.026700014 -0.04232849 -0.046885815 -0.10878225 0.025390195 -0.032318562 -0.042803083
-0.081247374 0.04827473 -0.16625848 -0.007035572 -0.012846264 0.02404231 0.030854475 -0.058512654
-0.08581481 0.020281596 0.007943032 -0.0038826754 -0.009241206 0.0075195064 -0.020652162 -0.02318503
00000000: 4427 013c 1ae3 13bd 57cd 0d3d 6395 4c3c
00000010: 10d7 1bbc a99e 31bd 10b6 e9bc cfb0 1fbd
00000020: c19a 413b 8546 b8bd 01a4 1bbc 2fdc 6cbc
00000030: b5b0 e93c 24b8 2e3d 8e62 29bd f4c9 b3bd
00000040: 52a6 8c3b 3b0c be3c 4171 8ebd cafd c03c
00000050: 02dd cdbd fe95 a83c fc4b 49bd 46c4 123b
00000060: 9151 2dbd c971 9abd 5d0c 8cbd b82d a93c
00000070: f9e6 86bd 79ce aebd f090 f2bd d438 91bc
00000080: ed12 6ebc db53 6abd 6639 81bb 9078 a9bb
00000090: b4cb f83c 6266 48bd 0e24 acbd 7570 9e3c
000000a0: 4652 9d3c 0055 113d 6e97 483d e9e3 97bd
000000b0: a905 5bbb 1a28 94bd e0f3 96bd 2730 80bc
000000c0: 91b6 b1bc 37d3 35bd 2359 62bd 3c71 6e3c
000000d0: 9804 e3bc 51d1 d3bd 0e4b 9abd e138 1abc
000000e0: 59c5 a7bd 760f 91bd 7aa6 98bd 3d47 5e3c
000000f0: 9a25 95bc 0b68 3abd aafc a7bd 5437 9bbc
00000100: a8d2 59bd 6153 ac3c d9b4 38bd dda7 a2bd
00000110: be02 cb3c 8d0d a53c bc61 283c 7ff8 4ebc
00000120: a78b dbbd e0de 0cbd 65d7 473c 382d 9f3b
00000130: 0a55 51bd 1edf febc 7f4d 5c3a d41d 76bd
00000140: 738e bc3c 2c2e 1b3b c794 92bd db86 153d
00000150: 8ecd 0e3d 40fd 88bc 915e c73c 1f2f 82bd
00000160: d6d6 babd af36 d7bd 8e51 e4bc 5bd1 52bd
00000170: 6250 123d a4e2 15bd d76b 7cbd 4f61 1a3d
00000180: 0aee 70bd fdb9 dabc a460 2dbd 570b 40bd
00000190: 3ac9 debd 19ff cf3c 7860 04bd 4952 2fbd
000001a0: 0665 a6bd b9bb 453d aa3f 2abe a88a e6bb
000001b0: 2379 52bc 61f4 c43c 86c2 fc3c f7aa 6fbd
000001c0: adbf afbd 9725 a63c 7e23 023c 7c74 7ebb
000001d0: 6d68 17bc 3166 f63b b92e a9bc 88ee bdbc

weight f4 [6, 1800]
0.008010557 -0.023085354 -0.029592799 0.0055017252 0.0069833347 -0.0069972943 -0.01645408 -0.0122901285
0.015837463 -0.070927344 -0.016584737 -0.013286469 -0.013587031 -0.006584267 -0.018527305 0.034614094
0.011170539 0.028799247 -0.02282889 -0.052099083 0.093783274 -0.023623552 0.034575287 0.009998794
0.033607587 -0.014401179 -0.038555045 -0.00658805 0.0036000474 -0.020168683 0.022088692 0.09846616
-0.010806652 0.014621655 -0.0024859966 -0.008346168 0.0007764619 0.01757113 -0.013143376 0.009726289
-0.0016800138 -0.011879537 0.0048577394 0.10178887 0.014488205 0.00641758 0.0008896122 -0.04826671
0.009454147 -0.028833622 0.026975648 -0.022204997 0.0024993957 0.07855059 -0.053422075 -0.014086744
-0.036951665 -0.07144296 0.016017614 0.012183253 0.012463589 0.01934891 0.008979318 -0.008148618
0.002858685 0.028639177 0.046378255 0.043854263 0.027630989 0.0042906385 0.041274954 0.006888221
0.07202224 -0.006038749 0.039633587 0.05013396 0.02881312 0.018106535 -0.050378423 -0.029904865
0.008529475 0.020621613 0.015687546 0.0012638925 0.016215384 -0.0042364383 -0.07213905 -0.029281756
-0.10037176 0.024271717 0.04492335 -0.00798593 -0.014606479 0.0018921406 -0.0026496896 0.016921433
0.00980356 -0.013305976 0.0022821901 -0.013569735 -0.056327004 0.041790128 -0.033795018 -0.032489587
0.04035356 -0.010072469 0.03727407 -0.016444532 0.013559082 -0.030927826 -0.0113785565 -0.025587419
0.032860167 -0.017589565 -0.0013752015 0.031372257 -0.027926233 0.033293005 0.01877965 -0.0041640876
0.023327515 0.029662536 -0.020443793 -0.005424619 -0.019121045 0.002883718 0.012107721 -0.0715124
0.02026609 -0.02135279 -0.015577092 -0.018594166 0.015866403 -0.039513838 0.004322088 -0.010463317
0.026235078 -0.0554902 -0.04173107 -0.034136556 -0.035916004 -0.014294818 -0.02205417 -0.020949138
-0.015470333 -0.046432626 -0.030635355 0.014848534 0.009972274 -0.012286887 0.03913706 -0.0785984
-0.0032459842 -0.006056073 0.014373671 -0.053935736 -0.027238326 -0.016020633 -0.06598814 -0.02371079
0.14225519 -0.0023535816 0.004232932 -0.017960483 0.006236042 0.017487684 0.03677996 0.025529915
0.024679812 0.0029483547 -0.0057168165 -0.0032233703 -0.0015437132 -0.029762814 0.01606532 -0.012157291
-0.0046878564 0.0036594656 -0.0018852165 0.015858535 -0.014572737 0.028971251 0.095255926 0.009202002
-0.0063219923 0.004309449 0.019317523 -0.011693526 -0.013045916 0.038040698 -0.03340396 0.009446795
-0.0061745457 -0.03879125 0.019030932 -0.07320358 0.0019323706 0.02444205 0.03535771 -0.006083552
-0.016726147 0.003408244 0.012070977 -0.002196141 -0.0076075187 -0.01720516 0.07205404 -0.01775518
0.016222624 0.030316822 0.02785253 0.0034095221 -0.006678051 -0.018611517 -0.0018779504 -0.026440026
0.021614574 -0.034586374 -0.036152028 0.010453614 0.020177174 -0.011140405 0.0068915538 -0.023457153
-0.0091754 0.0051239766 0.08474944 -0.013543747 -0.024982205 -0.074948035 0.02256083 -0.027058039
-0.010283969 -0.013346179 -0.08186598 -0.02902984 -0.0003656178 -0.018207313 0.03929837 -0.012531064
0.014378403 0.003872993 0.01633952 0.00070927653 -0.024014318 0.032269333 0.011590284 -0.019445747
0.0109449485 0.034750562 0.013424382 0.028882423 0.047802035 0.008725348 0.03555515 -0.0011955563
00000000: b63e 033c 7f1d bdbc 996c f2bc d147 b43b
00000010: 75d4 e43b 8f49 e5bb b5ca 86bc 895c 49bc
00000020: 91bd 813c 5b42 91bd b7dc 87bc 7daf 59bc
00000030: 239c 5ebc d6c0 d7bb 93c6 97bc 82c7 0d3d
00000040: a304 373c 66ec eb3c a703 bbbc d965 55bd
00000050: 7211 c03d 2e86 c1bc d19e 0d3d fbd1 233c
00000060: 1ca8 093d ecf2 6bbc e5eb 1dbd 92e0 d7bb
00000070: c6ee 6b3b cb38 a5bc 58f3 b43c a0a8 c93d
00000080: 620e 31bc ab8f 6f3c 1aec 22bb 5ebe 08bc
00000090: 7a8b 4b3a 55f1 8f3c 5157 57bc 035b 1f3c
000000a0: e933 dcba 64a2 42bc ac2d 9f3b af76 d03d
000000b0: f05f 6d3c 904a d23b dd34 693a 50b3 45bd
000000c0: 91e5 1a3c 7d34 ecbc 09fc dc3c 41e7 b5bc
000000d0: e7cc 233b 22df a03d 1bd1 5abd 16cc 66bc
000000e0: a15a 17bd b050 92bd 5f37 833c 449c 473c
000000f0: 1534 4c3c 9b81 9e3c fd1d 133c c881 05bc
00000100: c758 3b3b b59c ea3c 20f7 3d3d 87a0 333d
00000110: 625a e23c 7c98 8c3b ed0f 293d 96b6 e13b
00000120: 6580 933d b3e0 c5bb d456 223d 4459 4d3d
00000130: 7e09 ec3c 2854 943c 9b59 4ebd 0cfb f4bc
00000140: 36bf 0b3c a8ee a83c 2b83 803c 32a9 a53a
00000150: 20d6 843c d2d1 8abb a3bd 93bd 4be0 efbc
00000160: b68f cdbd 7bd5 c63c 8c01 383d 6bd7 02bc
00000170: 0350 6fbc b401 f83a 6aa6 2dbb d19e 8a3c
00000180: 1c9f 203c 4f01 5abc cc90 153b 9853 5ebc
00000190: 25b7 66bd 202c 2b3d a56c 0abd cd13 05bd
000001a0: c649 253d ff06 25bc b2ac 183d afb6 86bc
000001b0: e926 5e3c 5a5c fdbc 206d 3abc b59c d1bc
000001c0: 6298 063d fe17 90bc 1b40 b4ba 3280 003d
000001d0: 8ec5 e4bc 3f5e 083d c8d7 993c e672 88bb
000001e0: 5819 bf3c d9fe f23c be79 a7bc 01c1 b1bb
000001f0: bda3 9cbc c3fc 3c3b 765f 463c 1875 92bd
00000200: 1205 a63c 0cec aebc 0f37 7fbc cb52 98bc
00000210: 42fa 813c 43d9 21bd 4da0 8d3b 556e 2bbc
00000220: f2ea d63c b149 63bd 33ee 2abd c6d2 0bbd
00000230: a91c 13bd d034 6abc f2aa b4bc 879d abbc
00000240: 4877 7dbc 2330 3ebd fff6 fabc 4447 733c
00000250: c062 233c f04e 49bc 2f4e 203d 33f8 a0bd
00000260: 94ba 54bb 0672 c6bb 8c7f 6b3c b8eb 5cbd
00000270: e922 dfbc b43d 83bc ca24 87bd 213d c2bc
00000280: 58ab 113e 8c3e 1abb 68b4 8a3b dd21 93bc
00000290: b657 cc3b 5542 8f3c 95a6 163d 1d24 d13c
000002a0: 512d ca3c 2f39 413b 2254 bbbb 2e3f 53bb
000002b0: 6b56 caba 25d1 f3bc 6b9b 833c 602f 47bc
000002c0: 979c 99bb a5d3 6f3b 5e19 f7ba c2e9 813c
000002d0: 7dc2 6ebc 1e55 ed3c 8a15 c33d fec3 163c
000002e0: b728 cfbb 4736 8d3b c83f 9e3c 3496 3fbc
000002f0: 8abe 55bc 90d0 1b3d 97d2 08bd bbc6 1a3c
00000300: d853 cabb 93e3 1ebd c2e6 9b3c c2eb 95bd
00000310: 9947 fd3a b23a c83c 3fd3 103d 8858 c7bb
00000320: 4605 89bc d95c 5f3b 59c5 453c 22ed 0fbb
00000330: 7e48 f9bb d6f1 8cbc 1291 933d 5073 91bc
00000340: 4fe5 843c fc5a f83c fd2a e43c 4a72 5f3b
00000350: 8dd3 dabb 2e77 98bc 8f25 f6ba c198 d8bc
00000360: 0c11 b13c 71aa 0dbd 2614 14bd a345 2b3c
00000370: 9a4a a53c 3f86 36bc 8bd2 e13b 3729 c0bc
00000380: 6b54 16bc 08e7 a73b 1d91 ad3d 98e6 5dbc
00000390: 7ba7 ccbc 5b7e 99bd 7dd1 b83c d2a8 ddbc
000003a0: 187e 28bc efa9 5abc 5aa9 a7bd fdcf edbc
000003b0: 64b0 bfb9 8127 95bc 54f7 203d 184f 4dbc
000003c0: 6593 6b3c 0ad2 7d3b 75da 853c beee 393a
000003d0: adb9 c4bc d92c 043d 2de5 3d3c b04c 9fbc
000003e0: 7152 333c 9b56 0e3d f0f1 5b3c d59a ec3c
000003f0: 11cc 433d c3f4 0e3c 47a2 113d 36b4 9cba

bias f4 [6]
0.0016406674 0.0019684287 -0.022391494 0.0033764264 0.02443414 -0.024883606
00000000: aa0b d73a c100 013b 5e6e b7bc 0947 5d3b
00000010: 1b2a c83c b4d8 cbbc
